…
/data/student/k2110261/Multi-iTransformer/optunademo.py:118: FutureWarning: suggest_loguniform has been deprecated in v3.0.0. This feature will be removed in v6.0.0. See https://github.com/optuna/optuna/releases/tag/v3.0.0. Use suggest_float(..., log=True) instead.
  learning_rate = trial.suggest_loguniform('learning_rate', 1e-6, 1e-3)
Non-A100 GPU detected, using math or mem efficient attention if input tensor is on cuda
> /data/student/k2110261/Multi-iTransformer/src/train.py(33)train()
-> output = model(data)
iTransformer(
  (layers): ModuleList(
    (0-3): 4 x ModuleList(
      (0): Attention(
        (to_qkv): Sequential(
          (0): Linear(in_features=157, out_features=384, bias=False)
          (1): Rearrange('b n (qkv h d) -> qkv b h n d', qkv=3, h=4)
        )
        (to_v_gates): Sequential(
          (0): Linear(in_features=157, out_features=4, bias=False)
          (1): Sigmoid()
          (2): Rearrange('b n h -> b h n 1', h=4)
        )
        (attend): Attend(
          (attn_dropout): Dropout(p=0.0, inplace=False)
        )
        (to_out): Sequential(
          (0): Rearrange('b h n d -> b n (h d)')
          (1): Linear(in_features=128, out_features=157, bias=False)
          (2): Dropout(p=0.0, inplace=False)
        )
      )
      (1): LayerNorm((157,), eps=1e-05, elementwise_affine=True)
      (2): Sequential(
        (0): Linear(in_features=157, out_features=836, bias=True)
        (1): GEGLU()
        (2): Dropout(p=0.0, inplace=False)
        (3): Linear(in_features=418, out_features=157, bias=True)
      )
      (3): LayerNorm((157,), eps=1e-05, elementwise_affine=True)
    )
  )
  (mlp_in): Sequential(
    (0): Linear(in_features=30, out_features=157, bias=True)
    (1): Rearrange('b v (n d) -> b (v n) d', n=1)
    (2): LayerNorm((157,), eps=1e-05, elementwise_affine=True)
  )
  (pred_heads): ModuleList(
    (0): Sequential(
      (0): Rearrange('b (v n) d -> b v (n d)', n=1)
      (1): Linear(in_features=157, out_features=1, bias=True)
      (2): Rearrange('b v n -> b n v')
    )
  )
)
tensor([[[-0.8964, -1.2295, -1.2946, -1.1432, -0.9966],
         [-0.8967, -1.2198, -1.3433, -1.1392, -0.9925],
         [-0.8970, -1.2292, -1.3785, -1.1418, -0.9924],
         ...,
         [… ...,
         [… ...,
         [-0.9058, -1.2438, -1.3774, -1.1295, -0.9852],
         [-0.9061, -1.2435, -1.3812, -1.1286, -0.9855],
…
